…
puts=decoder_output) # Compile the model with the specified learning rate optimizer = Adam(learning_rate=learning_rate) model.compile(optimizer=optimizer, loss='mean_squared_error') return model model = InformerModel(input_shape=(look_back, n_features)) model.compile(optimizer='adam', loss='mean_squared_error') model.summary() Model: \u0026quot;model_10\u0026quot; _________________________________________________________________ Layer (type) Output Shape Param # ================================================================= input_12 (InputLayer) [(None, 10, 4)] 0 informer_encoder_11 (Infor (None, 4) 108480 merEncoder) repeat_vector_10 (RepeatVe (None, 4, 4) 0 ctor) lstm_10 (LSTM) (None, 4, 312) 395616 tf.__operators__.getitem_1 (None, 312) 0 0 (SlicingOpLambda) dense_82 (Dense) (None, 4) 1252 ================================================================= Total params: 505348 (1.93 MB) Trainable params: 505348 (1.93 MB) Non-trainable params: 0 (0.00 Byte) _________________________________________________________________ The model.fit method trains the neural network using the provided training data (X_train and y_train) for a total of 50 epochs with mini-batches of 32 samples. Durin
…
